tetris_model_322316.pt (torch, 12161 bytes, 7 tensors)

layers.0.weight f4 [32, 4]
000000 df d3 87 3e da 5d 1f c0 84 12 d3 be 80 99 a7 be
       0.26528832 -2.4901032 -0.41225064 -0.327343
000010 23 69 8e bf 68 60 6d 3d 4b ed 52 be 48 f1 00 bf
       -1.1125835 0.05795327 -0.20598333 -0.50368166
000020 60 7d 60 bd 20 e5 0c bd 20 6d eb be d4 4b 8e be
       -0.054807067 -0.034398198 -0.45981693 -0.27792227
000030 ba e7 14 c0 78 79 08 40 fd 59 b5 3e 42 df 0c bf
       -2.3266435 2.1324139 0.35420218 -0.55028164
000040 33 98 57 c0 91 1d 67 bf 20 fe 16 bf a8 41 af be
       -3.3686645 -0.9027949 -0.58981514 -0.3422978
000050 0c c7 b1 be 7e 59 a8 be aa f6 c7 be 58 40 bd be
       -0.34722173 -0.32880777 -0.39055377 -0.36963153
000060 71 dd ff bd 08 1c ae bd cc 75 ea bb 6c 5e 16 bf
       -0.124934085 -0.0850144 -0.0071551558 -0.58737826
000070 4a da 97 be a5 93 46 be b2 ea 61 be fd 42 ef be
       -0.2965873 -0.1939226 -0.22062185 -0.46730796
000080 3e b3 1a 3f 66 68 b4 3f 95 45 0c bf 83 26 66 bf
       0.6042975 1.409436 -0.54793674 -0.89902514
000090 68 05 2a bf 0d 44 06 bf 18 cb b6 be 28 e3 b1 bf
       -0.664145 -0.5244759 -0.35701823 -1.3897448
0000a0 86 c8 ba be 5e 1f 8f be d8 5b 88 bd 10 ef 38 3d
       -0.36481112 -0.2795362 -0.06658143 0.045149863
0000b0 66 0d e1 be d1 d5 37 be 17 90 8e 3d 83 e5 bd be
       -0.43955535 -0.17952658 0.06961077 -0.37089166
0000c0 71 b7 29 c0 60 fd 75 3f 2a 36 b8 bc 95 aa 91 bf
       -2.6518214 0.96089745 -0.022486765 -1.1380183
0000d0 79 e8 8c c0 c8 f6 00 40 6e 66 ab 3f f1 4e 97 bf
       -4.403378 2.0150623 1.3390634 -1.1820966
0000e0 5c 2d 6d bd 92 c0 b4 bd 4e 6f 5c be 40 14 ce be
       -0.057904586 -0.08825792 -0.21526834 -0.40249825
0000f0 2d f3 9a be 7a 1c a0 bf 82 d4 9f bf ca 42 a9 3d
       -0.30263653 -1.250869 -1.2486727 0.08264692
000100 47 4b bd be 0b ba 21 40 5b 13 af bf 4a e5 96 bd
       -0.36971495 2.5269802 -1.3677782 -0.07367952
000110 c8 bf 27 bf f6 50 bf bc 5a d2 09 bf 81 96 82 bf
       -0.6552701 -0.023354035 -0.53836596 -1.020218
000120 58 95 92 bf 69 10 1d 40 e9 56 80 bf ed d3 a0 be
       -1.1451826 2.4541266 -1.0026523 -0.31411687
000130 9d 4c 1c bf 35 47 64 bf 49 c8 ab be d1 6b 62 bf
       -0.610544 -0.89171153 -0.33551243 -0.88445765
000140 f6 d6 93 be 74 c8 55 be c0 21 02 bc 8c ad 89 be
       -0.2887494 -0.20877248 -0.007942617 -0.26890218
000150 65 0b 09 bf 6a 09 5c c0 42 f4 ac b9 f3 d9 ac 3e
       -0.5353301 -3.4380746 -0.00032988383 0.33760032
000160 32 96 56 3f a8 84 11 bf 5e 35 e4 be 08 38 5d 3b
       0.8382293 -0.5684304 -0.44571966 0.003375532
000170 40 bd 07 40 d9 24 a6 bf 19 58 fc be 64 b6 3f 3f
       2.120926 -1.2979995 -0.49285963 0.7488768
000180 2c 42 8f bf 4c 35 cf 3e ea c1 f7 3c a2 bb 72 bf
       -1.1192069 0.4047035 0.030243833 -0.94817555
000190 16 64 26 3e 89 41 a9 c0 74 d5 89 3f f6 55 d0 3f
       0.16249117 -5.28925 1.0768266 1.6276233
0001a0 c6 52 e8 3f e5 4e 86 bf 72 ec 6a be e6 3d 61 3e
       1.815026 -1.0492827 -0.22941759 0.21996269
0001b0 c5 f8 92 3f b1 6a 0a be 68 f3 ef 3e b0 36 09 3f
       1.1482168 -0.13517262 0.46865392 0.5359907
0001c0 1e 2e 76 c0 08 83 46 3f 8c bb 90 3f d6 25 3f bf
       -3.8465648 0.7754369 1.1307235 -0.7466711
0001d0 df fa 6a bf 5c b2 83 bf 9c 9b 0b bf 59 7d e0 be
       -0.9178905 -1.0288806 -0.54534316 -0.43845633
0001e0 aa 23 a6 bf 6b 3e ad bf 6a d2 9b be 9e 20 38 be
       -1.2979634 -1.3534673 -0.3043397 -0.17981192
0001f0 30 80 9c bf 42 3e d8 3e 92 b7 1e 3e 5a b6 73 bf
       -1.222662 0.42235 0.15499714 -0.9520012

layers.0.bias f4 [32]
000000 90 4f 03 40 60 56 f3 be 94 5b ca be 9b cd 35 c1
       2.051731 -0.47526836 -0.39522994 -11.362697
000010 e1 8e d7 40 00 25 90 3e ac 91 80 bf 24 c1 2c 41
       6.7361913 0.2815323 -1.0044456 10.797153
000020 31 12 ea 40 d9 aa 07 41 88 88 f0 be ec 32 c9 bd
       7.3147206 8.479211 -0.46979165 -0.09824166
000030 14 db 1b 41 98 de 2f c1 cb 83 08 bf 9b 88 96 40
       9.740986 -10.991844 -0.533261 4.7041755
000040 9d 00 f7 c0 f5 48 0a bf 25 c9 f9 c0 b0 df 13 41
       -7.718825 -0.54017574 -7.805804 9.242111
000050 00 eb 2e be c2 72 9c 40 05 c8 48 41 73 11 50 41
       -0.17081833 4.8890085 12.548833 13.00426
000060 37 44 23 41 8f ec 56 40 60 1e 4e 41 32 22 47 41
       10.204154 3.3581884 12.882416 12.445848
000070 c2 35 fe c0 4b 09 f0 40 06 c7 f8 40 6b e4 3b 41
       -7.944062 7.5011344 7.774295 11.743266

layers.2.weight f4 [32, 32]
000000 ae 6b c2 bf 57 90 cd 3e db e3 72 3d d6 20 0d c0
       -1.5189111 0.40149185 0.05929933 -2.2051291
000010 70 25 ff be 33 99 15 be c3 ed 40 be 54 d2 09 3f
       -0.4983325 -0.14609222 -0.18840699 0.5383656
000020 9f e4 35 3c 3d 24 3f be 48 a4 b7 bd d3 53 56 be
       0.011101871 -0.18666168 -0.08966881 -0.20930414
000030 fc 2f 34 3f e8 1e f4 bf be 60 99 be 62 59 f9 be
       0.7038572 -1.9071932 -0.2995662 -0.48701006
000040 23 9a dc bf 56 cf 22 39 4b 9b c7 bf fb cb f5 be
       -1.7234539 0.00015526763 -1.5594267 -0.48007187
000050 2a f4 86 3d 80 a0 8b bf 8b 30 80 3f 01 fc d4 3f
       0.06589539 -1.0908356 1.0014814 1.6639405
000060 56 89 7a 3f e4 7b 4f c0 82 5f be 3f b2 3a ac 3f
       0.9786581 -3.2419367 1.4872897 1.3455412
000070 93 7c 65 bf ca 13 ca be 56 b3 83 bf 8b dc de 3f
       -0.8964321 -0.39468223 -1.0289104 1.7411054
000080 a0 86 0d bd a3 c1 67 be a8 b3 15 be 61 3e 9a be
       -0.034552217 -0.2263246 -0.14619315 -0.30125716
000090 f0 b4 89 be 5f 16 f9 3d c0 e7 86 bd ec f7 36 be
       -0.26895857 0.1216247 -0.065871716 -0.17868012
0000a0 79 e6 0d be f0 e5 af bd 3a 9b 13 be d5 f6 44 bd
       -0.1385745 -0.08588779 -0.14414683 -0.04808696
0000b0 2a 99 66 bb ef 6a e0 be 79 47 26 bd 34 53 3e bc
       -0.0035186508 -0.43831584 -0.040595505 -0.011616517
0000c0 7f 4c 1d bd 9a b9 49 bd f6 45 ef bd b8 80 16 be
       -0.03840303 -0.04924927 -0.11683266 -0.1469754
0000d0 a2 01 2f be 2a fc 94 be 9b 1f e9 be ea f8 b3 bd
       -0.17090467 -0.29098636 -0.45531926 -0.08787711
0000e0 f4 fb 97 be bd c8 9a bd 63 96 e9 bd 4b e8 94 be
       -0.29684412 -0.07557819 -0.11405637 -0.29083475
0000f0 63 c7 86 be 58 42 13 3d 4d 97 b5 bd da 8c ca bd
       -0.26323995 0.035951942 -0.08866749 -0.098901466
000100 37 3a 4f bd 79 53 04 be b4 02 83 3d 37 07 54 bf
       -0.050592627 -0.12922467 0.06397 -0.8282351
000110 24 3c e6 be 24 b2 2e bd 8c 9a 10 be 95 88 7e bf
       -0.4496776 -0.042650357 -0.14121455 -0.9942716
000120 0b a9 23 3e cd ec 53 bf d1 82 df bd 51 61 e4 3c
       0.15982454 -0.82783204 -0.10913623 0.027878435
000130 f7 88 70 bd ab 8e 20 c0 20 cc 03 3f f0 88 e5 be
       -0.05872437 -2.5087078 0.51483345 -0.44831038
000140 64 56 10 3c bb cd a3 3e 94 3f e8 3d 0f 99 89 be
       0.00880966 0.31992897 0.113402516 -0.26874587
000150 4c f0 e9 3d fc b1 c8 be 3b e4 5d bf a5 2a 8b bf
       0.11422786 -0.3919829 -0.8667638 -1.0872389
000160 9e 20 c1 be 58 a2 14 bd 97 cd 5b bf 76 86 0f bd
       -0.37720197 -0.036287636 -0.8586058 -0.03504034
000170 5c 99 f6 be 65 b3 8a be f8 6f 6b be 6f 21 10 bf
       -0.4816388 -0.27089992 -0.22991931 -0.56301016
000180 1d 10 e5 be ab 53 81 3d 02 6b 2a bd 37 c4 30 40
       -0.44738856 0.063147865 -0.041605957 2.761976
000190 51 5c c4 3e b1 5e ed bd 89 7b 8a 39 d5 4b 79 3f
       0.38351682 -0.115903266 0.00026413452 0.97381335
0001a0 2a d8 66 3f 42 59 fc be c2 f7 45 3d 53 a3 d6 bd
       0.9017359 -0.49286848 0.048331983 -0.104803704
0001b0 44 77 8b c0 6b 75 0d 40 18 90 ad bd a3 15 81 3d
       -4.358309 2.2102916 -0.08474749 0.06302955
0001c0 f2 32 45 40 12 94 54 bf 71 c2 63 40 b6 3b 26 bf
       3.0812345 -0.8303844 3.5587428 -0.6493486
0001d0 fd 3e 34 3e ca dc 17 3f 72 1e cd be 19 ac ad bf
       0.17602153 0.5932127 -0.4006229 -1.3568145
0001e0 d4 cb 36 3f e6 65 5f c0 3c 09 eb bf 10 88 85 bf
       0.7140477 -3.4905944 -1.8362193 -1.0432148
0001f0 a4 54 4e 40 ac b6 20 c0 51 dc 12 c0 be 01 0a bf
       3.223916 -2.5111494 -2.294697 -0.5390891
000200 71 05 0b c0 77 3d ab 3e 93 f1 1b 3e 75 ac ad bf
       -2.172207 0.3344533 0.15228872 -1.3568255
000210 85 97 78 be de 9f a7 bd ee 74 b3 be 7d 9c 3b bf
       -0.2427655 -0.08184789 -0.35050148 -0.7328566
000220 5a 14 88 bf 10 90 37 be b3 f6 ba bd f2 9c 0d 3e
       -1.0631211 -0.17926049 -0.091290854 0.13829401
000230 eb bb be be a7 78 33 c0 80 c1 c6 be 5f 1e 5e be
       -0.37252745 -2.804239 -0.38819504 -0.21691273
000240 f5 28 a1 bf 5e 16 81 be 60 36 d4 bf 0a 4e e2 3b
       -1.2590624 -0.25212377 -1.6579094 0.0069062756
000250 43 1a 06 3e 4d 04 97 bd 3c de 5d bf 49 08 04 be
       0.13095956 -0.07373867 -0.8666723 -0.12893786
000260 4f d4 90 3d 70 a3 88 3f 9e 19 5c be 9e 91 9a be
       0.07071745 1.0674877 -0.21494147 -0.30189222
000270 53 f3 b2 bf 27 c8 68 3d 44 cf 7a bd 73 0a b7 be
       -1.3980507 0.056831505 -0.06123282 -0.3575016
000280 1b 06 c1 bf 81 a6 f9 3e 11 ef 70 bc 47 a5 c3 be
       -1.5079988 0.48759845 -0.014705435 -0.38212034
000290 9e 52 7a bc 67 1d a6 3c 9b ae 80 3d 9b 42 a3 3f
       -0.015278487 0.020277692 0.06283303 1.2754701
0002a0 71 a0 8c 3f 61 3d 8d 3e 58 9c fd bd 48 13 26 3d
       1.0986463 0.2758589 -0.12383336 0.04054573
0002b0 69 ee b7 3f 64 04 3a bf 99 8c d5 be 45 f0 00 bf
       1.4369632 -0.7266295 -0.4170883 -0.5036662
0002c0 39 1f c4 3e 58 38 5a 3e 2c b6 0c bf 8e 6d 0e 3e
       0.3830507 0.21310556 -0.5496547 0.1390898
0002d0 1d 17 9c 3d 27 d7 60 bf d2 a2 10 40 0d 69 42 40
       0.07621596 -0.87828296 2.2599378 3.0376618
0002e0 15 a1 dc 3f 75 c5 2a c0 b4 79 32 40 63 e5 2d 40
       1.7236658 -2.6683018 2.7886782 2.7171257
0002f0 6d 2e 6f 3e 2d ac fc 3e 89 5f e7 be f3 eb 35 40
       0.23357554 0.4935011 -0.45190075 2.8425262
000300 98 c9 8c bf 47 32 dc bd 1e 5b 21 be 11 d4 7b 40
       -1.0999022 -0.10751777 -0.15757415 3.9348185
000310 93 86 08 c0 8a 40 5c 3d fc c5 bc bd d4 75 0c bf
       -2.1332138 0.053772487 -0.0921745 -0.5486729
000320 60 8a 4b c0 5e dd 15 3f e3 fe ec bd e7 b1 db bd
       -3.1803207 0.58540905 -0.11572053 -0.107272916
000330 5d 49 33 c0 c2 d8 17 40 d6 23 3b bf 76 fa 9b bf
       -2.8013527 2.3726048 -0.73101556 -1.218581
000340 41 64 36 40 51 2b 1d c0 2a c0 39 40 54 0b 33 3f
       2.849869 -2.4557688 2.9023538 0.6993916
000350 48 65 b7 bd e5 42 0b bf 22 c1 57 bf 86 b0 e4 3d
       -0.08954865 -0.5439895 -0.8427907 0.11166482
000360 7b d3 1e 3f 48 0d 49 c0 68 c2 fb 3d 9b df 83 bf
       0.62041444 -3.1414356 0.122929394 -1.0302614
000370 4a ee 15 40 87 68 25 c0 8c 05 53 bf f2 ef 5d 3e
       2.342669 -2.5845048 -0.8243034 0.21673563
000380 ba 4b a3 3c 99 13 13 3e a5 cf b3 3d 01 3b 5d bf
       0.01993357 0.14362945 0.087798394 -0.8641816
000390 90 2f e7 be 1b 3e 7e bd ba 8e 03 bf 63 b9 24 bd
       -0.45153475 -0.062070947 -0.5138966 -0.04021586
0003a0 41 c5 7d bf 89 8d 6d bd a7 0a 67 bc 5a 2a 86 bd
       -0.9912911 -0.057996307 -0.014101661 -0.06551047
0003b0 68 30 e0 bd e9 03 97 bf a0 2a ce bb f5 99 fc bd
       -0.10946733 -1.1798068 -0.0062917024 -0.123340525
0003c0 ba 12 2e c0 29 bc 63 bf 42 0d 25 c0 3b d6 2e be
       -2.719893 -0.88958985 -2.5789342 -0.1707391
0003d0 17 b3 0f be a7 36 e9 be d0 eb c6 be 4d 80 0e 3f
       -0.14033161 -0.4554951 -0.38851786 0.5566452
0003e0 11 0b 02 bc c8 19 75 3e 31 57 54 3e 34 5d 12 bf
       -0.007937209 0.23935616 0.20736386 -0.57173467
0003f0 7d 2e a5 bf 69 c4 3f be 06 2d 1c be e6 aa 0a be
       -1.2904812 -0.18727268 -0.1525155 -0.13541755

layers.2.bias f4 [32]
000000 61 d1 54 41 6e 95 87 bd 17 5c af be 0c f3 08 c0
       13.301118 -0.06620298 -0.34249946 -2.1398344
000010 d1 29 a6 40 39 b2 78 41 59 6f 92 bf 32 09 eb 3f
       5.1926045 15.543511 -1.1440231 1.8362181
000020 81 a7 79 41 27 76 6b be 51 0c 57 41 96 e2 26 41
       15.6033945 -0.2299429 13.440507 10.430319
000030 e1 ab 06 bf 44 96 4c be 40 4c 1a 40 fd 90 c7 be
       -0.52606016 -0.19979197 2.410904 -0.38977805
000040 a9 28 5a 41 e9 b8 85 be a3 c3 5b 41 a0 c9 0b bf
       13.634927 -0.26117638 13.735263 -0.5460453
000050 89 e6 ac 40 a1 68 a3 bd 68 75 21 41 58 3a 01 40
       5.4031415 -0.07978941 10.091164 2.019186
000060 42 c0 11 41 e1 9f 4d 41 6d ad 78 be dc 52 86 be
       9.109438 12.851533 -0.24284907 -0.26235092
000070 a1 c5 d5 40 1e 3f 4e be 90 09 e1 bd 24 fd c5 be
       6.6803746 -0.20141265 -0.10988152 -0.38669693

layers.4.weight f4 [32, 32]
000000 5c a1 ac 3f 32 79 36 3d fe c0 7d 3f bf 83 55 c0
       1.3486743 0.044549175 0.9912261 -3.3361661
000010 4a 17 4e 3d 0d 9b 08 40 4f 5d 35 c0 46 23 cd 3f
       0.05031518 2.1344635 -2.83382 1.602639
000020 4f ce 12 40 8c fc 81 bd d3 e0 d5 3f cf e4 aa 3e
       2.293842 -0.063469976 1.6709236 0.33377692
000030 ba 24 d5 be 90 93 60 be c9 00 f4 3e 0d 15 b9 3d
       -0.41629583 -0.2193129 0.4765685 0.09037218
000040 20 a1 94 3f 95 43 52 3e 9b df b0 3f 72 0c 5a bf
       1.1611671 0.20533593 1.3818239 -0.8517524
000050 94 39 e2 3f 01 60 e9 3d 5d 6d e6 3e 4e 47 1f 40
       1.7673821 0.113952644 0.45005313 2.488727
000060 e0 29 40 3f ff ef ae 3f d0 ce ad bd 53 4f a1 bd
       0.75063896 1.3666991 -0.08486712 -0.07876458
000070 b4 b8 3a be 87 e0 2f be 5c 85 d5 bd 88 8d 0c be
       -0.18234521 -0.17175494 -0.10425827 -0.13725865
000080 9a ca 24 3d 22 a8 cf 3d 45 cc a4 be ce b1 6d c0
       0.04023228 0.10139491 -0.32187095 -3.7139773
000090 56 d2 61 40 f1 c9 29 3e f9 eb 10 c0 ca e3 d8 3e
       3.528463 0.16580941 -2.2644026 0.4236129
0000a0 94 51 91 3e 60 6c aa bb 4b 87 db bc ba e4 9e bc
       0.28382552 -0.0052009076 -0.026797911 -0.019396175
0000b0 2f 32 86 be 2f fb 1c be 75 4b 2b be 48 4c d5 bf
       -0.26210162 -0.15330194 -0.16728003 -1.6663904
0000c0 30 44 e3 bd 60 33 a3 bd 83 58 f1 bc 5b 38 88 bf
       -0.1109699 -0.079687834 -0.029461151 -1.0642198
0000d0 b5 06 aa 3f 46 02 2e bd f5 ab 35 3e fe 43 5d be
       1.3283297 -0.042482637 0.17741378 -0.21607968
0000e0 c0 c7 d6 3f 70 64 42 bf 70 9b 13 be 81 f0 7b be
       1.6779709 -0.75934505 -0.14414763 -0.24603464
0000f0 2c 82 81 3e 57 4c 2e be f5 9c f5 bc 79 6f 46 3e
       0.25294626 -0.17021309 -0.02998207 0.19378461
000100 50 d8 cd be 99 67 90 3d 91 ed 97 be 57 2d aa bf
       -0.40204096 0.0705101 -0.29673436 -1.3295087
000110 8e 3b 0d bf 60 96 d3 3d f9 4c a5 bf 07 a6 2d bd
       -0.55169 0.10331416 -1.2914115 -0.042394664
000120 46 33 88 3d d2 3e 8a 3d fc c0 28 bf de 9f 0a bf
       0.06650405 0.06750263 -0.6591947 -0.5415019
000130 c2 cb ce 3e 5c 4a 0d bd 8d 4a 24 3e 69 fc d5 be
       0.4038983 -0.034494743 0.16044064 -0.41794136
000140 a2 ea 13 bf 4f 5e e4 3e 94 33 23 bf 51 8e 04 c0
       -0.57779896 0.44603202 -0.63750577 -2.0711863
000150 c1 4b 79 bf b0 c8 89 3e 48 77 80 bf 56 b0 11 3e
       -0.97381216 0.26910925 -1.0036402 0.14227423
000160 27 fb 57 bf d7 7c 96 bd 26 cf a5 bd 6b 3b 3f bd
       -0.84367603 -0.0734803 -0.08096151 -0.046687525
000170 03 b0 21 3e a0 f9 19 bc 46 60 ba 3d 86 08 82 3f
       0.157898 -0.009397894 0.09100394 1.0158851
000180 b1 49 64 be 15 3f e6 3d 53 fb 07 bf 92 88 43 bf
       -0.22293736 0.11242501 -0.53117865 -0.76380265
000190 a1 60 34 3d 23 5b 6a bf f9 66 ff be 68 81 80 be
       0.044037465 -0.91545314 -0.4988325 -0.2509873
0001a0 cb 62 6b bf b8 e1 8a be 94 fb 03 be df 39 1a bd
       -0.9194762 -0.27125335 -0.12888938 -0.037652846
0001b0 6e 41 15 3e 89 fa 26 be d8 3f 29 3d 9a 42 80 be
       0.1457574 -0.16306509 0.04132065 -0.25050813
0001c0 0d ba 2f be 99 50 66 3c fe 4e 50 bd 01 97 e3 be
       -0.17160816 0.014057302 -0.050856583 -0.44451144
0001d0 30 7c 3a 3d b9 f4 e8 3d d0 44 81 bc a3 d2 46 bd
       0.04552859 0.11374802 -0.015779883 -0.048540723
0001e0 6e 71 4b be 28 ff b0 be 42 7a ce 3c 40 c7 fa bd
       -0.19867489 -0.3456967 0.025204781 -0.12245035
0001f0 b4 be 37 be bc f4 ce bd 8e 88 a0 3d 1f 45 95 bd
       -0.17943841 -0.10105273 0.07838546 -0.072885744
000200 28 2b ad be a4 af 7f be a3 61 9d bf 3e d0 8d bf
       -0.33821988 -0.24969345 -1.2295421 -1.1079175
000210 8b 29 32 be a2 a4 5c be e8 65 81 bf eb e7 aa bd
       -0.1739866 -0.21547177 -1.0109224 -0.08345016
000220 a2 4a d2 3d 25 71 91 3e 07 e1 74 be 55 90 22 be
       0.10268141 0.28406635 -0.23913966 -0.15875371
000230 43 5d e7 3d 98 f7 7f bd c4 8c a6 3d 4b 7f 3f bf
       0.11297085 -0.062491983 0.08132318 -0.7480361
000240 b8 84 b5 be 91 d9 c2 bc 9a 8c 6b be 9f d8 01 c0
       -0.3545282 -0.023785384 -0.23002854 -2.0288465
000250 4e 77 5e bd 5e 5f 2b 3e 9f fc af be fb 9f 55 3e
       -0.054312997 0.16735598 -0.34372422 0.20861809
000260 8e 5f f1 be e9 4f ec 3e ab 93 89 3d a9 ae 36 3e
       -0.47143215 0.46154717 0.067176186 0.17840065
000270 86 a0 af be c7 33 be 3e 8b 47 d6 bd 61 49 d4 3e
       -0.34302157 0.37148878 -0.104628645 0.41462234
000280 1e b8 56 be 7a 34 90 bd 79 ec 25 c0 23 f4 b2 be
       -0.20968673 -0.07041259 -2.5925581 -0.34951887
000290 b3 ee e7 3b a0 f6 ab bd 86 86 4d be ec ca 12 3e
       0.0070780157 -0.08396649 -0.20070848 0.14335221
0002a0 5e 15 f3 3d ec 5f d5 3d a9 94 fc bd 97 d4 a7 be
       0.1186931 0.10418686 -0.12333042 -0.3277938
0002b0 f2 17 02 3e e2 c2 05 bc d5 f1 85 bd d3 39 9a bf
       0.12704447 -0.008164139 -0.065402664 -1.2048897
0002c0 6b 33 8f bd aa c9 8e 3c f5 37 cf bd 19 4b a1 bd
       -0.06992229 0.017430145 -0.10118095 -0.07875652
0002d0 78 d4 2d 3e 53 58 db 3c 61 b9 70 be ce 99 c3 3e
       0.16975582 0.026775515 -0.23508216 0.3820328
0002e0 de 51 90 be cb f9 e4 be 63 b0 1d 3e 9d b5 92 bc
       -0.2818746 -0.44721827 0.15399317 -0.017908866
0002f0 d8 aa 0b c0 46 0a 7d bd 4b 09 e7 bd f9 e1 a1 be
       -2.1823025 -0.061777376 -0.11281069 -0.31617716
000300 bd e0 df be d7 3d 8b be 3f da a6 bf df 49 9d bf
       -0.4372615 -0.27195618 -1.3035353 -1.2288169
000310 a7 1a ca be 66 31 e5 be ef e1 a1 bf aa 0c f1 bc
       -0.3947346 -0.4476425 -1.2647074 -0.029424984
000320 54 9a f3 3d 28 07 88 3e 9d 3b 44 be 90 42 81 be
       0.1189467 0.2656796 -0.19163366 -0.25246096
000330 4c d6 d7 3d a3 87 12 be 1f 88 45 3c 38 8e bf be
       0.10538921 -0.14309554 0.01205638 -0.37413192
000340 8d 98 cf be c9 5d 08 be 17 58 dc be dc 88 ef bf
       -0.40546075 -0.13317026 -0.43035957 -1.8713641
000350 5a 19 9a be d1 07 0e be 43 85 fd bd fb 1a 3f bd
       -0.30097467 -0.13870169 -0.12378933 -0.04665659
000360 74 a5 05 be d5 26 06 3f a9 53 9f be f8 81 c8 bd
       -0.13051397 0.52403 -0.31118515 -0.097904146
000370 4a f7 de be 1f 48 4c 3e 61 ce 32 3e 67 86 8b bf
       -0.43548042 0.19949387 0.1746154 -1.0900391
000380 3d 60 25 be 76 e8 51 be 52 2b 05 bf 1b 96 71 bf
       -0.16149993 -0.20498833 -0.52019227 -0.9436967
000390 c3 bb bb be ab 6c e4 be 89 53 a4 bf 1f cf 09 bd
       -0.36666688 -0.44614157 -1.2837993 -0.03364479
0003a0 c8 68 8a 3e 3a 71 92 3e a1 79 65 be 6f b9 37 be
       0.27033067 0.2860201 -0.22409679 -0.17941831
0003b0 41 3b 0e bb 2d 20 15 3e 01 55 5f 3d 13 b2 cc be
       -0.0021702799 0.14563055 0.054524425 -0.3997961
0003c0 ab 07 0a bf 9d 06 9f bc e8 47 fc be 8d 11 00 c0
       -0.5391795 -0.019412333 -0.4927361 -2.0010712
0003d0 9a d2 5d be 90 0b 85 3e c4 3f d2 be c8 3d 7e 3d
       -0.2166237 0.25985384 -0.41064274 0.062070638
0003e0 73 10 ae be e3 37 ca 3e 57 6a 10 3c 82 90 48 3e
       -0.33996925 0.39495763 0.008814416 0.19586375
0003f0 60 2c 74 be a7 6e 11 3e 6d ea f2 bd 2c 32 f1 3e
       -0.23845053 0.14202367 -0.118611194 0.4710859

layers.4.bias f4 [32]
000000 64 34 76 41 42 cf 53 40 34 d5 90 40 3c dd 1e bf
       15.387791 3.309525 4.526026 -0.62056327
000010 16 cb 16 40 63 2c 5f 3e de 22 ea 3f fc 94 f6 3f
       2.3561454 0.21794276 1.8291891 1.9264216
000020 7d 7f 14 3f c0 82 84 bf 7e 1c c7 bf 1f 85 99 3f
       0.5800703 -1.0352402 -1.555557 1.199375
000030 85 e1 59 40 e6 61 4a 40 68 9e be bc 47 35 1a 40
       3.4043896 3.1622252 -0.023268893 2.4095018
000040 c9 5a 86 be ab b5 8d 41 52 f0 4f 40 7c 5c 8b 41
       -0.2624114 17.713705 3.249043 17.420158
000050 f8 e7 f6 be 82 66 38 bf d6 47 da 40 8d 76 72 40
       -0.48223853 -0.72031415 6.821269 3.7884858
000060 9b 64 20 3e bf dd e5 3f 7d ff 26 40 3c e4 8f 3e
       0.15663378 1.7958297 2.6093438 0.28103817
000070 37 c2 89 41 ee 5b 35 be ec 8a 1f 40 ca c1 d5 3f
       17.219831 -0.1771085 2.492854 1.6699765

layers.6.weight f4 [1, 32]
000000 a5 b8 bd 3f 85 9c fb 3c 15 3a 20 be db bf 01 bf
       1.4821974 0.030714283 -0.15647157 -0.50683373
000010 65 7e c2 bd 75 c5 d0 3c dc 83 bb 3e 23 e7 5b bd
       -0.09496764 0.02548478 0.36624038 -0.053687226
000020 37 a2 9a 3e c7 d2 db be a4 00 3f be a8 7c 89 bd
       0.30201885 -0.42934248 -0.18652588 -0.067132294
000030 79 41 5c be af a9 ba 3c 52 40 8a 3d 11 63 b0 3c
       -0.21509351 0.02278599 0.067505494 0.021531614
000040 fa f8 cc 3d f5 c0 fe 3f ee c3 14 3e 9f 2a d7 3f
       0.10008426 1.9902636 0.14527866 1.6809882
000050 9d af c2 bd ad ca 1d 3d 59 45 99 3f 83 d0 bc be
       -0.09506152 0.038523365 1.1974288 -0.36877832
000060 4e c9 25 3d d2 8d 3e be c4 71 c6 3b d7 2a 4f bd
       0.040475182 -0.18608788 0.0060560424 -0.050577965
000070 d5 f4 f1 3f ef 5d 3c 3d db 85 cf 3c 30 4a a5 be
       1.8902842 0.04598802 0.025332382 -0.32283163
